…
2024-05-02 13:55:26,312   INFO  cfg.OPTIM.GRAD_NORM_CLIP: 10
2024-05-02 13:55:26,312   INFO  cfg.OPTIM.SCHEDULER: linear_warmup_with_cosdecay
2024-05-02 13:55:26,312   INFO  cfg.OPTIM.WARMUP_EPOCH: 1
2024-05-02 13:55:26,312   INFO  cfg.OPTIM.LR: 0.02
2024-05-02 13:55:26,312   INFO  cfg.TAG: EPCL_HD
2024-05-02 13:55:26,312   INFO  cfg.EXP_GROUP_PATH: voxel/semantic_kitti
2024-05-02 13:57:13,862   INFO  ==> Loading parameters from checkpoint .//checkpoints/best_checkpoint.pth to CPU
2024-05-02 13:57:16,490   INFO  ==> Done <All keys matched successfully>
2024-05-02 13:57:16,521   INFO  EPCLOutdoorSegHD(
  (stem): Sequential(
    (0): Conv3d(4, 51, kernel_size=(3, 3, 3), bias=False)
    (1): BatchNorm(51, eps=1e-05, momentum=0.1, affine=True, track_running_stats=True)
    (2): ReLU(inplace=True)
    (3): Conv3d(51, 51, kernel_size=(3, 3, 3), bias=False)
    (4): BatchNorm(51, eps=1e-05, momentum=0.1, affine=True, track_running_stats=True)
    (5): ReLU(inplace=True)
  )
  (stage1): Sequential(
    (0): BasicConvolutionBlock(
      (net): Sequential(
        (0): Conv3d(51, 51, kernel_size=(2, 2, 2), stride=(2, 2, 2), bias=False)
        (1): BatchNorm(51, eps=1e-05, momentum=0.1, affine=True, track_running_stats=True)
        (2): ReLU(inplace=True)
      )
    )
    (1): ResidualBlock(
      (net): Sequential(
        (0): Conv3d(51, 51, kernel_size=(3, 3, 3), bias=False)
        (1): BatchNorm(51, eps=1e-05, momentum=0.1, affine=True, track_running_stats=True)
        (2): ReLU(inplace=True)
        (3): Conv3d(51, 51, kernel_size=(3, 3, 3), bias=False)
        (4): BatchNorm(51, eps=1e-05, momentum=0.1, affine=True, track_running_stats=True)
      )
      (downsample): Identity()
      (relu): ReLU(inplace=True)
    )
    (2): ResidualBlock(
      (net): Sequential(
        (0): Conv3d(51, 51, kernel_size=(3, 3, 3), bias=False)
        (1): BatchNorm(51, eps=1e-05, momentum=0.1, affine=True, track_running_stats=True)
        (2): ReLU(inplace=True)
        (3): Conv3d(51, 51, kernel_size=(3, 3, 3), bias=False)
        (4): BatchNorm(51, eps=1e-05, momentum=0.1, affine=True, track_running_stats=True)
      )
      (downsample): Identity()
      (relu): ReLU(inplace=True)
    )
  )
  (stage2): Sequential(
    (0): BasicConvolutionBlock(
      (net): Sequential(
        (0): Conv3d(51, 51, kernel_size=(2, 2, 2), stride=(2, 2, 2), bias=False)
        (1): BatchNorm(51, eps=1e-05, momentum=0.1, affine=True, track_running_stats=True)
        (2): ReLU(inplace=True)
      )
    )
    (1): ResidualBlock(
      (net): Sequential(
        (0): Conv3d(51, 102, kernel_size=(3, 3, 3), bias=False)
        (1): BatchNorm(102, eps=1e-05, momentum=0.1, affine=True, track_running_stats=True)
        (2): ReLU(inplace=True)
        (3): Conv3d(102, 102, kernel_size=(3, 3, 3), bias=False)
        (4): BatchNorm(102, eps=1e-05, momentum=0.1, affine=True, track_running_stats=True)
      )
      (downsample): Sequential(
        (0): Conv3d(51, 102, kernel_size=(1, 1, 1), bias=False)
        (1): BatchNorm(102, eps=1e-05, momentum=0.1, affine=True, track_running_stats=True)
      )
      (relu): ReLU(inplace=True)
    )
    (2): ResidualBlock(
      (net): Sequential(
        (0): Conv3d(102, 102, kernel_size=(3, 3, 3), bias=False)
        (1): BatchNorm(102, eps=1e-05, momentum=0.1, affine=True, track_running_stats=True)
        (2): ReLU(inplace=True)
        (3): Conv3d(102, 102, kernel_size=(3, 3, 3), bias=False)
        (4): BatchNorm(102, eps=1e-05, momentum=0.1, affine=True, track_running_stats=True)
      )
      (downsample): Identity()
      (relu): ReLU(inplace=True)
    )
    (3): ResidualBlock(
      (net): Sequential(
        (0): Conv3d(102, 102, kernel_size=(3, 3, 3), bias=False)
        (1): BatchNorm(102, eps=1e-05, momentum=0.1, affine=True, track_running_stats=True)
        (2): ReLU(inplace=True)
        (3): Conv3d(102, 102, kernel_size=(3, 3, 3), bias=False)
        (4): BatchNorm(102, eps=1e-05, momentum=0.1, affine=True, track_running_stats=True)
      )
      (downsample): Identity()
      (relu): ReLU(inplace=True)
    )
  )
  (stage3): Sequential(
    (0): BasicConvolutionBlock(
      (net): Sequential(
        (0): Conv3d(102, 102, kernel_size=(2, 2, 2), stride=(2, 2, 2), bias=False)
        (1): BatchNorm(102, eps=1e-05, momentum=0.1, affine=True, track_running_stats=True)
        (2): ReLU(inplace=True)
      )
    )
    (1): ResidualBlock(
      (net): Sequential(
        (0): Conv3d(102, 204, kernel_size=(3, 3, 3), bias=False)
        (1): BatchNorm(204, eps=1e-05, momentum=0.1, affine=True, track_running_stats=True)
        (2): ReLU(inplace=True)
        (3): Conv3d(204, 204, kernel_size=(3, 3, 3), bias=False)
        (4): BatchNorm(204, eps=1e-05, momentum=0.1, affine=True, track_running_stats=True)
      )
      (downsample): Sequential(
        (0): Conv3d(102, 204, kernel_size=(1, 1, 1), bias=False)
        (1): BatchNorm(204, eps=1e-05, momentum=0.1, affine=True, track_running_stats=True)
      )
      (relu): ReLU(inplace=True)
    )
    (2): ResidualBlock(
      (net): Sequential(
        (0): Conv3d(204, 204, kernel_size=(3, 3, 3), bias=False)
        (1): BatchNorm(204, eps=1e-05, momentum=0.1, affine=True, track_running_stats=True)
        (2): ReLU(inplace=True)
        (3): Conv3d(204, 204, kernel_size=(3, 3, 3), bias=False)
        (4): BatchNorm(204, eps=1e-05, momentum=0.1, affine=True, track_running_stats=True)
      )
      (downsample): Identity()
      (relu): ReLU(inplace=True)
    )
    (3): ResidualBlock(
      (net): Sequential(
        (0): Conv3d(204, 204, kernel_size=(3, 3, 3), bias=False)
        (1): BatchNorm(204, eps=1e-05, momentum=0.1, affine=True, track_running_stats=True)
        (2): ReLU(inplace=True)
        (3): Conv3d(204, 204, kernel_size=(3, 3, 3), bias=False)
        (4): BatchNorm(204, eps=1e-05, momentum=0.1, affine=True, track_running_stats=True)
      )
      (downsample): Identity()
      (relu): ReLU(inplace=True)
    )
    (4): ResidualBlock(
      (net): Sequential(
        (0): Conv3d(204, 204, kernel_size=(3, 3, 3), bias=False)
        (1): BatchNorm(204, eps=1e-05, momentum=0.1, affine=True, track_running_stats=True)
        (2): ReLU(inplace=True)
        (3): Conv3d(204, 204, kernel_size=(3, 3, 3), bias=False)
        (4): BatchNorm(204, eps=1e-05, momentum=0.1, affine=True, track_running_stats=True)
      )
      (downsample): Identity()
      (relu): ReLU(inplace=True)
    )
  )
  (stage4): Sequential(
    (0): BasicConvolutionBlock(
      (net): Sequential(
        (0): Conv3d(204, 204, kernel_size=(2, 2, 2), stride=(2, 2, 2), bias=False)
        (1): BatchNorm(204, eps=1e-05, momentum=0.1, affine=True, track_running_stats=True)
        (2): ReLU(inplace=True)
      )
    )
    (1): ResidualBlock(
      (net): Sequential(
        (0): Conv3d(204, 409, kernel_size=(3, 3, 3), bias=False)
        (1): BatchNorm(409, eps=1e-05, momentum=0.1, affine=True, track_running_stats=True)
        (2): ReLU(inplace=True)
        (3): Conv3d(409, 409, kernel_size=(3, 3, 3), bias=False)
        (4): BatchNorm(409, eps=1e-05, momentum=0.1, affine=True, track_running_stats=True)
      )
      (downsample): Sequential(
        (0): Conv3d(204, 409, kernel_size=(1, 1, 1), bias=False)
        (1): BatchNorm(409, eps=1e-05, momentum=0.1, affine=True, track_running_stats=True)
      )
      (relu): ReLU(inplace=True)
    )
    (2): ResidualBlock(
      (net): Sequential(
        (0): Conv3d(409, 409, kernel_size=(3, 3, 3), bias=False)
        (1): BatchNorm(409, eps=1e-05, momentum=0.1, affine=True, track_running_stats=True)
        (2): ReLU(inplace=True)
        (3): Conv3d(409, 409, kernel_size=(3, 3, 3), bias=False)
        (4): BatchNorm(409, eps=1e-05, momentum=0.1, affine=True, track_running_stats=True)
      )
      (downsample): Identity()
      (relu): ReLU(inplace=True)
    )
    (3): ResidualBlock(
      (net): Sequential(
        (0): Conv3d(409, 409, kernel_size=(3, 3, 3), bias=False)
        (1): BatchNorm(409, eps=1e-05, momentum=0.1, affine=True, track_running_stats=True)
        (2): ReLU(inplace=True)
        (3): Conv3d(409, 409, kernel_size=(3, 3, 3), bias=False)
        (4): BatchNorm(409, eps=1e-05, momentum=0.1, affine=True, track_running_stats=True)
      )
      (downsample): Identity()
      (relu): ReLU(inplace=True)
    )
    (4): ResidualBlock(
      (net): Sequential(
        (0): Conv3d(409, 409, kernel_size=(3, 3, 3), bias=False)
        (1): BatchNorm(409, eps=1e-05, momentum=0.1, affine=True, track_running_stats=True)
        (2): ReLU(inplace=True)
        (3): Conv3d(409, 409, kernel_size=(3, 3, 3), bias=False)
        (4): BatchNorm(409, eps=1e-05, momentum=0.1, affine=True, track_running_stats=True)
      )
      (downsample): Identity()
      (relu): ReLU(inplace=True)
    )
    (5): ResidualBlock(
      (net): Sequential(
        (0): Conv3d(409, 409, kernel_size=(3, 3, 3), bias=False)
        (1): BatchNorm(409, eps=1e-05, momentum=0.1, affine=True, track_running_stats=True)
        (2): ReLU(inplace=True)
        (3): Conv3d(409, 409, kernel_size=(3, 3, 3), bias=False)
        (4): BatchNorm(409, eps=1e-05, momentum=0.1, affine=True, track_running_stats=True)
      )
      (downsample): Identity()
      (relu): ReLU(inplace=True)
    )
    (6): ResidualBlock(
      (net): Sequential(
        (0): Conv3d(409, 409, kernel_size=(3, 3, 3), bias=False)
        (1): BatchNorm(409, eps=1e-05, momentum=0.1, affine=True, track_running_stats=True)
        (2): ReLU(inplace=True)
        (3): Conv3d(409, 409, kernel_size=(3, 3, 3), bias=False)
        (4): BatchNorm(409, eps=1e-05, momentum=0.1, affine=True, track_running_stats=True)
      )
      (downsample): Identity()
      (relu): ReLU(inplace=True)
    )
  )
  (up1): ModuleList(
    (0): BasicDeconvolutionBlock(
      (net): Sequential(
        (0): Conv3d(409, 409, kernel_size=(2, 2, 2), stride=(2, 2, 2), bias=False, transposed=True)
        (1): BatchNorm(409, eps=1e-05, momentum=0.1, affine=True, track_running_stats=True)
        (2): ReLU(inplace=True)
      )
    )
    (1): Sequential(
      (0): ResidualBlock(
        (net): Sequential(
          (0): Conv3d(613, 409, kernel_size=(3, 3, 3), bias=False)
          (1): BatchNorm(409, eps=1e-05, momentum=0.1, affine=True, track_running_stats=True)
          (2): ReLU(inplace=True)
          (3): Conv3d(409, 409, kernel_size=(3, 3, 3), bias=False)
          (4): BatchNorm(409, eps=1e-05, momentum=0.1, affine=True, track_running_stats=True)
        )
        (downsample): Sequential(
          (0): Conv3d(613, 409, kernel_size=(1, 1, 1), bias=False)
          (1): BatchNorm(409, eps=1e-05, momentum=0.1, affine=True, track_running_stats=True)
        )
        (relu): ReLU(inplace=True)
      )
      (1): ResidualBlock(
        (net): Sequential(
          (0): Conv3d(409, 409, kernel_size=(3, 3, 3), bias=False)
          (1): BatchNorm(409, eps=1e-05, momentum=0.1, affine=True, track_running_stats=True)
          (2): ReLU(inplace=True)
          (3): Conv3d(409, 409, kernel_size=(3, 3, 3), bias=False)
          (4): BatchNorm(409, eps=1e-05, momentum=0.1, affine=True, track_running_stats=True)
        )
        (downsample): Identity()
        (relu): ReLU(inplace=True)
      )
    )
  )
  (up2): ModuleList(
    (0): BasicDeconvolutionBlock(
      (net): Sequential(
        (0): Conv3d(409, 204, kernel_size=(2, 2, 2), stride=(2, 2, 2), bias=False, transposed=True)
        (1): BatchNorm(204, eps=1e-05, momentum=0.1, affine=True, track_running_stats=True)
        (2): ReLU(inplace=True)
      )
    )
    (1): Sequential(
      (0): ResidualBlock(
        (net): Sequential(
          (0): Conv3d(306, 204, kernel_size=(3, 3, 3), bias=False)
          (1): BatchNorm(204, eps=1e-05, momentum=0.1, affine=True, track_running_stats=True)
          (2): ReLU(inplace=True)
          (3): Conv3d(204, 204, kernel_size=(3, 3, 3), bias=False)
          (4): BatchNorm(204, eps=1e-05, momentum=0.1, affine=True, track_running_stats=True)
        )
        (downsample): Sequential(
          (0): Conv3d(306, 204, kernel_size=(1, 1, 1), bias=False)
          (1): BatchNorm(204, eps=1e-05, momentum=0.1, affine=True, track_running_stats=True)
        )
        (relu): ReLU(inplace=True)
      )
      (1): ResidualBlock(
        (net): Sequential(
          (0): Conv3d(204, 204, kernel_size=(3, 3, 3), bias=False)
          (1): BatchNorm(204, eps=1e-05, momentum=0.1, affine=True, track_running_stats=True)
          (2): ReLU(inplace=True)
          (3): Conv3d(204, 204, kernel_size=(3, 3, 3), bias=False)
          (4): BatchNorm(204, eps=1e-05, momentum=0.1, affine=True, track_running_stats=True)
        )
        (downsample): Identity()
        (relu): ReLU(inplace=True)
      )
    )
  )
  (up3): ModuleList(
    (0): BasicDeconvolutionBlock(
      (net): Sequential(
        (0): Conv3d(204, 153, kernel_size=(2, 2, 2), stride=(2, 2, 2), bias=False, transposed=True)
        (1): BatchNorm(153, eps=1e-05, momentum=0.1, affine=True, track_running_stats=True)
        (2): ReLU(inplace=True)
      )
    )
    (1): Sequential(
      (0): ResidualBlock(
        (net): Sequential(
          (0): Conv3d(204, 153, kernel_size=(3, 3, 3), bias=False)
          (1): BatchNorm(153, eps=1e-05, momentum=0.1, affine=True, track_running_stats=True)
          (2): ReLU(inplace=True)
          (3): Conv3d(153, 153, kernel_size=(3, 3, 3), bias=False)
          (4): BatchNorm(153, eps=1e-05, momentum=0.1, affine=True, track_running_stats=True)
        )
        (downsample): Sequential(
          (0): Conv3d(204, 153, kernel_size=(1, 1, 1), bias=False)
          (1): BatchNorm(153, eps=1e-05, momentum=0.1, affine=True, track_running_stats=True)
        )
        (relu): ReLU(inplace=True)
      )
      (1): ResidualBlock(
        (net): Sequential(
          (0): Conv3d(153, 153, kernel_size=(3, 3, 3), bias=False)
          (1): BatchNorm(153, eps=1e-05, momentum=0.1, affine=True, track_running_stats=True)
          (2): ReLU(inplace=True)
          (3): Conv3d(153, 153, kernel_size=(3, 3, 3), bias=False)
          (4): BatchNorm(153, eps=1e-05, momentum=0.1, affine=True, track_running_stats=True)
        )
        (downsample): Identity()
        (relu): ReLU(inplace=True)
      )
    )
  )
  (up4): ModuleList(
    (0): BasicDeconvolutionBlock(
      (net): Sequential(
        (0): Conv3d(153, 153, kernel_size=(2, 2, 2), stride=(2, 2, 2), bias=False, transposed=True)
        (1): BatchNorm(153, eps=1e-05, momentum=0.1, affine=True, track_running_stats=True)
        (2): ReLU(inplace=True)
      )
    )
    (1): Sequential(
      (0): ResidualBlock(
        (net): Sequential(
          (0): Conv3d(204, 153, kernel_size=(3, 3, 3), bias=False)
          (1): BatchNorm(153, eps=1e-05, momentum=0.1, affine=True, track_running_stats=True)
          (2): ReLU(inplace=True)
          (3): Conv3d(153, 153, kernel_size=(3, 3, 3), bias=False)
          (4): BatchNorm(153, eps=1e-05, momentum=0.1, affine=True, track_running_stats=True)
        )
        (downsample): Sequential(
          (0): Conv3d(204, 153, kernel_size=(1, 1, 1), bias=False)
          (1): BatchNorm(153, eps=1e-05, momentum=0.1, affine=True, track_running_stats=True)
        )
        (relu): ReLU(inplace=True)
      )
      (1): ResidualBlock(
        (net): Sequential(
          (0): Conv3d(153, 153, kernel_size=(3, 3, 3), bias=False)
          (1): BatchNorm(153, eps=1e-05, momentum=0.1, affine=True, track_running_stats=True)
          (2): ReLU(inplace=True)
          (3): Conv3d(153, 153, kernel_size=(3, 3, 3), bias=False)
          (4): BatchNorm(153, eps=1e-05, momentum=0.1, affine=True, track_running_stats=True)
        )
        (downsample): Identity()
        (relu): ReLU(inplace=True)
      )
    )
  )
  (classifier): Sequential(
    (0): Linear(in_features=766, out_features=20, bias=True)
  )
  (dropout): Dropout(p=0.0, inplace=True)
  (criterion_losses): Losses(
    (ell_loss): ELLLoss()
    (dice_loss_v0): DiceLossV0()
    (dice_loss_v1): DiceLossV1()
    (wce_loss): WeightedCrossEntropyLoss()
    (ce_loss): CrossEntropyLoss()
    (focalloss): FocalLoss()
    (eqlv2): EQLv2()
    (groupsoftmax): GroupSoftmax()
    (groupsoftmax_fgbg): GroupSoftmax_fgbg_2()
  )
  (epcl_encoder): EPCLEncoder(
    (tokenizer): EPCLPreEncoder(
      (group_divider): SparseGroup()
      (encoder): EmbeddingEncoder(
        (first_conv): Sequential(
          (0): Conv1d(409, 128, kernel_size=(1,), stride=(1,))
          (1): BatchNorm1d(128, eps=1e-05, momentum=0.1, affine=True, track_running_stats=True)
          (2): ReLU(inplace=True)
          (3): Conv1d(128, 256, kernel_size=(1,), stride=(1,))
        )
        (second_conv): Sequential(
          (0): Conv1d(512, 512, kernel_size=(1,), stride=(1,))
          (1): BatchNorm1d(512, eps=1e-05, momentum=0.1, affine=True, track_running_stats=True)
          (2): ReLU(inplace=True)
          (3): Conv1d(512, 768, kernel_size=(1,), stride=(1,))
        )
      )
    )
    (encoder): ClipTransformer(
      (pos_embed): Sequential(
        (0): Linear(in_features=3, out_features=128, bias=True)
        (1): GELU(approximate='none')
        (2): Linear(in_features=128, out_features=768, bias=True)
      )
      (te_encoder): TaskEmbEncoder(
        (embedding): Embedding(20, 768)
        (trans): Sequential(
          (0): Linear(in_features=768, out_features=768, bias=True)
          (1): GELU(approximate='none')
          (2): Linear(in_features=768, out_features=768, bias=True)
        )
      )
      (blocks): Transformer(
        (resblocks): Sequential(
          (0): ResidualAttentionBlock(
            (attn): MultiheadAttention(
              (out_proj): NonDynamicallyQuantizableLinear(in_features=768, out_features=768, bias=True)
            )
            (ln_1): LayerNorm((768,), eps=1e-05, elementwise_affine=True)
            (mlp): Sequential(
              (c_fc): Linear(in_features=768, out_features=3072, bias=True)
              (gelu): QuickGELU()
              (c_proj): Linear(in_features=3072, out_features=768, bias=True)
            )
            (ln_2): LayerNorm((768,), eps=1e-05, elementwise_affine=True)
          )
          (1): ResidualAttentionBlock(
            (attn): MultiheadAttention(
              (out_proj): NonDynamicallyQuantizableLinear(in_features=768, out_features=768, bias=True)
            )
            (ln_1): LayerNorm((768,), eps=1e-05, elementwise_affine=True)
            (mlp): Sequential(
              (c_fc): Linear(in_features=768, out_features=3072, bias=True)
              (gelu): QuickGELU()
              (c_proj): Linear(in_features=3072, out_features=768, bias=True)
            )
            (ln_2): LayerNorm((768,), eps=1e-05, elementwise_affine=True)
          )
          (2): ResidualAttentionBlock(
            (attn): MultiheadAttention(
              (out_proj): NonDynamicallyQuantizableLinear(in_features=768, out_features=768, bias=True)
            )
            (ln_1): LayerNorm((768,), eps=1e-05, elementwise_affine=True)
            (mlp): Sequential(
              (c_fc): Linear(in_features=768, out_features=3072, bias=True)
              (gelu): QuickGELU()
              (c_proj): Linear(in_features=3072, out_features=768, bias=True)
            )
            (ln_2): LayerNorm((768,), eps=1e-05, elementwise_affine=True)
          )
          (3): ResidualAttentionBlock(
            (attn): MultiheadAttention(
              (out_proj): NonDynamicallyQuantizableLinear(in_features=768, out_features=768, bias=True)
            )
            (ln_1): LayerNorm((768,), eps=1e-05, elementwise_affine=True)
            (mlp): Sequential(
              (c_fc): Linear(in_features=768, out_features=3072, bias=True)
              (gelu): QuickGELU()
              (c_proj): Linear(in_features=3072, out_features=768, bias=True)
            )
            (ln_2): LayerNorm((768,), eps=1e-05, elementwise_affine=True)
          )
          (4): ResidualAttentionBlock(
            (attn): MultiheadAttention(
              (out_proj): NonDynamicallyQuantizableLinear(in_features=768, out_features=768, bias=True)
            )
            (ln_1): LayerNorm((768,), eps=1e-05, elementwise_affine=True)
            (mlp): Sequential(
              (c_fc): Linear(in_features=768, out_features=3072, bias=True)
              (gelu): QuickGELU()
              (c_proj): Linear(in_features=3072, out_features=768, bias=True)
            )
            (ln_2): LayerNorm((768,), eps=1e-05, elementwise_affine=True)
          )
          (5): ResidualAttentionBlock(
            (attn): MultiheadAttention(
              (out_proj): NonDynamicallyQuantizableLinear(in_features=768, out_features=768, bias=True)
            )
            (ln_1): LayerNorm((768,), eps=1e-05, elementwise_affine=True)
            (mlp): Sequential(
              (c_fc): Linear(in_features=768, out_features=3072, bias=True)
              (gelu): QuickGELU()
              (c_proj): Linear(in_features=3072, out_features=768, bias=True)
            )
            (ln_2): LayerNorm((768,), eps=1e-05, elementwise_affine=True)
          )
          (6): ResidualAttentionBlock(
            (attn): MultiheadAttention(
              (out_proj): NonDynamicallyQuantizableLinear(in_features=768, out_features=768, bias=True)
            )
            (ln_1): LayerNorm((768,), eps=1e-05, elementwise_affine=True)
            (mlp): Sequential(
              (c_fc): Linear(in_features=768, out_features=3072, bias=True)
              (gelu): QuickGELU()
              (c_proj): Linear(in_features=3072, out_features=768, bias=True)
            )
            (ln_2): LayerNorm((768,), eps=1e-05, elementwise_affine=True)
          )
          (7): ResidualAttentionBlock(
            (attn): MultiheadAttention(
              (out_proj): NonDynamicallyQuantizableLinear(in_features=768, out_features=768, bias=True)
            )
            (ln_1): LayerNorm((768,), eps=1e-05, elementwise_affine=True)
            (mlp): Sequential(
              (c_fc): Linear(in_features=768, out_features=3072, bias=True)
              (gelu): QuickGELU()
              (c_proj): Linear(in_features=3072, out_features=768, bias=True)
            )
            (ln_2): LayerNorm((768,), eps=1e-05, elementwise_affine=True)
          )
          (8): ResidualAttentionBlock(
            (attn): MultiheadAttention(
              (out_proj): NonDynamicallyQuantizableLinear(in_features=768, out_features=768, bias=True)
            )
            (ln_1): LayerNorm((768,), eps=1e-05, elementwise_affine=True)
            (mlp): Sequential(
              (c_fc): Linear(in_features=768, out_features=3072, bias=True)
              (gelu): QuickGELU()
              (c_proj): Linear(in_features=3072, out_features=768, bias=True)
            )
            (ln_2): LayerNorm((768,), eps=1e-05, elementwise_affine=True)
          )
          (9): ResidualAttentionBlock(
            (attn): MultiheadAttention(
              (out_proj): NonDynamicallyQuantizableLinear(in_features=768, out_features=768, bias=True)
            )
            (ln_1): LayerNorm((768,), eps=1e-05, elementwise_affine=True)
            (mlp): Sequential(
              (c_fc): Linear(in_features=768, out_features=3072, bias=True)
              (gelu): QuickGELU()
              (c_proj): Linear(in_features=3072, out_features=768, bias=True)
            )
            (ln_2): LayerNorm((768,), eps=1e-05, elementwise_affine=True)
          )
          (10): ResidualAttentionBlock(
            (attn): MultiheadAttention(
              (out_proj): NonDynamicallyQuantizableLinear(in_features=768, out_features=768, bias=True)
            )
            (ln_1): LayerNorm((768,), eps=1e-05, elementwise_affine=True)
            (mlp): Sequential(
              (c_fc): Linear(in_features=768, out_features=3072, bias=True)
              (gelu): QuickGELU()
              (c_proj): Linear(in_features=3072, out_features=768, bias=True)
            )
            (ln_2): LayerNorm((768,), eps=1e-05, elementwise_affine=True)
          )
          (11): ResidualAttentionBlock(
            (attn): MultiheadAttention(
              (out_proj): NonDynamicallyQuantizableLinear(in_features=768, out_features=768, bias=True)
            )
            (ln_1): LayerNorm((768,), eps=1e-05, elementwise_affine=True)
            (mlp): Sequential(
              (c_fc): Linear(in_features=768, out_features=3072, bias=True)
              (gelu): QuickGELU()
              (c_proj): Linear(in_features=3072, out_features=768, bias=True)
            )
            (ln_2): LayerNorm((768,), eps=1e-05, elementwise_affine=True)
          )
        )
      )
    )
    (upsamping): PointNetFeaturePropagation(
      (mlp_convs): ModuleList(
        (0): Conv1d(768, 409, kernel_size=(1,), stride=(1,))
      )
      (mlp_bns): ModuleList(
        (0): BatchNorm1d(409, eps=1e-05, momentum=0.1, affine=True, track_running_stats=True)
      )
    )
  )
)
2024-05-02 13:57:16,527   INFO  Model parameters: 183.956 M
2024-05-02 13:57:16,833   INFO  *************** TRAINED EPOCH 0 val EVALUATION *****************
2024-05-02 14:13:29,506   INFO  Validation per class iou: 
2024-05-02 14:13:29,511   INFO  +-------------------------+
|      Validation iou     |
+---------------+---------+
…
